mnist_mlp.pt (torch, 440092 bytes, 6 tensors)

fc1.weight f4 [128, 784]
-0.010608964 0.0058884993 0.0014093332 -0.02858228 -0.006841209 -0.0071680285 -0.010352826 0.009168752
-0.008823318 -0.024812937 -0.0314429 -0.018988738 -0.018212 -0.0754488 0.0017034147 -0.037857167
0.021946553 -0.025447417 -0.0072784293 -0.02918538 -0.02591087 0.02021997 0.0004444942 0.029192831
0.017649144 -0.00448307 -0.014827525 -0.035032004 -0.00473994 0.022009391 0.032232758 -0.00015659258
0.006335383 -0.019177893 -0.09972342 -0.05445759 -0.09782458 -0.07677141 -0.06286781 -0.13218966
-0.18055536 -0.16617906 -0.04486722 -0.08467626 -0.16065396 -0.15661761 -0.09226328 -0.17827699
-0.20363747 -0.032528352 -0.023974841 -0.0676705 -0.032501895 0.0042529665 -0.006220443 0.03185596
0.013037134 -0.016266266 -0.02511422 -0.0065219547 -0.02990624 -0.067121215 -0.09701123 -0.120079294
-0.18352605 -0.27289754 -0.20487493 -0.10446411 -0.12235641 -0.190331 -0.32498875 -0.32397875
-0.21677335 -0.071395636 -0.1174738 0.0023914175 -0.074016504 -0.15718727 -0.12464032 -0.17197876
-0.12581846 -0.085768886 -0.035349812 0.021987338 -0.0076834783 0.03353789 -0.12655821 0.040663216
0.16759849 -0.0026759866 -0.06871409 -0.11153002 0.014272859 0.044369657 0.08974623 -0.091324195
-0.116961755 -0.23501271 -0.07713422 0.010168085 -0.07391861 -0.03822402 0.019308846 0.113836184
0.18074577 0.009810875 -0.12332195 -0.06186509 0.15235232 0.14132032 0.12907816 -0.019269714
0.016417086 0.017525196 -0.10821236 0.14032142 0.083207496 -0.085195795 -0.08914885 0.03875923
-0.039501045 0.01918055 0.13815321 0.018892536 -0.02705295 -0.025464753 0.022111002 0.039548904
0.09540361 0.09675719 0.10590918 0.01847742 0.029875679 0.091340885 0.0045707608 0.08424992
0.33072478 0.25394043 0.169121 0.023139799 0.035526153 0.035499316 -0.13940623 0.08820153
-0.21398896 -0.14085765 -0.111299925 -0.028374864 -0.01881125 0.16148141 0.0655177 0.10230609
0.031774845 -0.040251162 -0.050433204 -0.030347122 0.09888625 0.116724655 0.12379489 0.043955013
-0.02717682 -0.055569097 0.03189567 0.052852966 0.052336242 0.08920448 0.19585867 -0.0397008
-0.01806726 -0.0635119 0.17229061 -0.1251068 -0.10197485 0.0016451933 -0.073018074 -0.034879796
0.060547996 0.09379636 -0.033596013 0.025674984 -0.024567168 -0.03632795 0.037706714 0.08428149
0.062507406 0.103222646 0.10074391 0.09054882 0.14219591 -0.05807057 0.019144442 0.064304486
0.049558274 0.16449578 0.15629911 0.06024482 -0.024408089 -0.1413403 0.10578544 -0.1038642
-0.00053987245 -0.0072614932 -0.0023456756 -0.0751067 -0.015646907 -0.035693556 -0.06350524 0.013612574
0.07781179 0.048849612 0.092620224 0.15370682 0.12907648 0.06875713 0.008532338 0.047513343
0.12473376 -0.029890051 -0.130596 -0.06000297 -0.14017858 0.07103128 0.14812641 0.00999485
-0.16481252 -0.09631547 0.04238755 0.039785925 -0.065184124 -0.04617395 -0.01987434 -0.042632565
0.08034842 -0.03311128 -0.10777359 0.10221791 0.007470451 0.07405867 0.07231067 0.09750274
0.07017677 0.0080414275 -0.02174032 0.050658572 0.007047919 0.013757293 -0.1658996 -0.12917906
-0.026721094 -0.020587862 0.024508925 -0.004102523 -0.004299158 -0.029237123 0.12674575 0.016573835
00000000: 38d1 2dbc 50f4 c03b 60b9 b83a 6325 eabc
00000010: 382c e0bb c8e1 eabb e69e 29bc 8838 163c
00000020: ae8f 10bc 8044 cbbc 45ca 00bd 458e 9bbc
00000030: 5531 95bc e784 9abd 1d45 df3a 1e10 1bbd
00000040: 42c9 b33c 1a77 d0bc e47f eebb 2e16 efbc
00000050: 0843 d4bc 5aa4 a53c 000b e939 ce25 ef3c
00000060: f094 903c b8e6 92bb 26ef 72bc b87d 0fbd
00000070: 8051 9bbb 0a4d b43c 7f06 043d 0033 24b9
00000080: 0b99 cf3b f51a 9dbc cb3b ccbd ec0e 5fbd
00000090: 4158 c8bd 543a 9dbd d7c0 80bd ba5c 07be
000000a0: 81e3 38be d82a 2abe b1c6 37bd bf6a adbd
000000b0: 7982 24be 5e60 20be 88f4 bcbd 3e8e 36be
000000c0: 5786 50be 733c 05bd e366 c4bc d596 8abd
000000d0: b520 05bd 785c 8b3b dcd4 cbbb 657b 023d
000000e0: b499 553c d540 85bc 56bc cdbc 1fb6 d5bb
000000f0: eefd f4bc d976 89bd d3ad c6bd 22ec f5bd
00000100: 41ee 3bbe 3ab9 8bbe bcca 51be 48f1 d5bd
00000110: ff95 fabd 21e6 42be ed64 a6be 8be0 a5be
00000120: d5f9 5dbe e037 92bd 1b96 f0bd 54b9 1c3b
00000130: f795 97bd b3f5 20be 6d43 ffbd 331b 30be
00000140: 8ed6 00be 99a7 afbd f7ca 10bd ca1e b43c
00000150: b0c5 fbbb 075f 093d 7a98 01be 798e 263d
00000160: f09e 2b3e 9b5f 2fbb f9b9 8cbd da69 e4bd
00000170: b6d8 693c f5bc 353d dfcc b73d 2e08 bbbd
00000180: a589 efbd 2ca7 70be 8cf8 9dbd 0a98 263c
00000190: a462 97bd ca90 1cbd 962d 9e3c f222 e93d
000001a0: 6b15 393e cbbd 203c 3890 fcbd 4066 7dbd
000001b0: 3f02 1c3e 46b6 103e 112d 043e 85db 9dbc
000001c0: 207d 863c 0091 8f3c 719e ddbd 6bb0 0f3e
000001d0: b168 aa3d 227b aebd ac93 b6bd 00c2 1e3d
000001e0: d9cb 21bd 8720 9d3c 0978 0d3e 85c4 9a3c
000001f0: 269e ddbc 759b d0bc 2222 b53c 08fe 213d
00000200: f862 c33d a228 c63d eae6 d83d f55d 973c
00000210: d7bd f43c ee10 bb3d 52c6 953b 398b ac3d
00000220: c254 a93e 7b04 823e 0e2e 2d3e ad8f bd3c
00000230: df83 113d bb67 113d 82c0 0ebe 01a3 b43d
00000240: ec1f 5bbe fd3c 10be 37f1 e3bd 6772 e8bc
00000250: 0d1a 9abc 625b 253e 252e 863d db85 d13d
00000260: 5726 023d 67de 24bd 0c93 4ebd 879a f8bc
00000270: e084 ca3d 560d ef3d 2d88 fd3d 2c0a 343d
00000280: eca1 debc 6c9c 63bd 09a5 023d 5a7c 583d
00000290: 875e 563d d7b0 b63d 2d8f 483e 4e9d 22bd
000002a0: ca01 94bc 8712 82bd f36c 303e ff1b 00be
000002b0: 31d8 d0bd 87a3 d73a 808a 95bd 1ede 0ebd
000002c0: 2d01 783d 4e18 c03d f99b 09bd 5854 d23c
000002d0: 1641 c9bc 9ecc 14bd 5b72 1a3d c69b ac3d
000002e0: e203 803d 6566 d33d d352 ce3d a971 b93d
000002f0: ce9b 113e 68db 6dbd ced4 9c3c 12b2 833d
00000300: 9efd 4a3d 9571 283e e00c 203e 46c3 763d
00000310: 79f3 c7bc 83bb 10be 09a6 d83d c1b6 d4bd
00000320: 3a86 0dba d2f1 edbb e8b9 19bb 8bd1 99bd
00000330: f12d 80bc 6833 12bd 090f 82bd 4607 5f3c
00000340: ca5b 9f3d 8816 483d acaf bd3d 5265 1d3e
00000350: a02c 043e 8ad0 8c3d 38cb 0b3c 5a9d 423d
00000360: 6a74 ff3d fbdb f4bc f5ba 05be adc5 75bd
00000370: f98a 0fbe d978 913d 73ae 173e 70c1 233c
00000380: 9dc4 28be 0c41 c5bd 919e 2d3d 91f6 223d
00000390: 417f 85bd e520 3dbd 83cf a2bc 7c9f 2ebd
000003a0: b68d a43d b29f 07bd 66b8 dcbd a057 d13d
000003b0: afca f43b 12ac 973d 9e17 943d 84af c73d
000003c0: d7b8 8f3d 31c0 033c c118 b2bc 5d7f 4f3d
000003d0: 3bf2 e63b 4566 613c 96e1 29be 8447 04be
000003e0: 32e6 dabc e0a7 a8bc f1c6 c83c 756e 86bb
000003f0: f4df 8cbb b182 efbc a3c9 013e dac5 873c

fc1.bias f4 [128]
0.095116295 -0.022225773 0.0770688 0.24472664 0.013912202 0.023785561 -0.023310574 0.02177106
0.029184243 -0.0038092893 0.06850941 0.11473834 -0.11748525 0.050378133 0.12141685 0.030117504
0.012306287 0.08011226 0.046515506 -0.0014811694 -0.06143311 -0.059886444 0.06587158 0.043596044
0.13538462 0.024220731 0.17762814 0.004476379 0.051517997 0.19502185 0.06561678 -0.057823874
-0.053772215 -0.00060207583 -0.10969531 0.10302358 0.1838876 0.101592794 0.19618092 -0.08096016
0.07661975 0.1113511 -0.01405813 -0.002975889 0.15085545 0.07496355 0.08298322 0.047480896
0.023326984 0.101300955 -0.029292764 0.08189993 0.093730785 -0.016531767 0.023396192 -0.008382361
-0.0075866226 0.087235145 -0.039299514 -0.043845326 0.059275396 0.14602742 0.022910355 0.15464708
-0.07291536 0.010295672 0.09855572 0.14916174 0.105838 0.05812582 -0.02664073 0.017261123
-0.04270582 -0.0055770385 0.03260223 -0.020376602 0.11180974 0.08537631 -0.040716857 0.18782502
0.0058851675 0.039604697 0.03793192 0.09465041 0.054346777 0.05446151 0.04026299 -0.032933503
0.052080348 0.029270563 0.019367244 -0.10636066 0.0475043 0.047748208 -0.011986779 0.0672482
0.10285047 0.022194779 -0.08092117 0.10761416 0.05077885 -0.015423165 -0.058841992 -0.07984459
0.036664076 0.055738688 0.036902525 0.13023388 0.053935662 0.1142861 0.008133848 0.030663082
-0.024777595 -0.10235048 -0.06955812 -0.12924004 -0.058206573 -0.022822859 -0.049111955 0.1012285
-0.10353091 0.09932797 -0.100115426 0.0038037058 -0.055153124 -0.13236819 0.018303555 0.1773888
00000000: 55cc c23d d312 b6bc 3fd6 9d3d 9f99 7a3e
00000010: 01f0 633c f0d9 c23c d1f5 bebc 3959 b23c
00000020: cb13 ef3c 45a5 79bb a94e 8c3d effb ea3d
00000030: 1b9c f0bd 4d59 4e3d 66a9 f83d fcb8 f63c
00000040: 4fa0 493c e611 a43d 0b87 3e3d cc23 c2ba
00000050: 49a1 7bbd 7d4b 75bd aee7 863d c491 323d
00000060: 44a2 0a3e 8e6a c63c 27e4 353e 97ae 923b
00000070: 8904 533d cfb3 473e 1762 863d bad8 6cbd
00000080: 4140 5cbd a0d4 1dba efa7 e0bd 07fe d23d
00000090: 084d 3c3e e20f d03d a7e3 483e 71ce a5bd
000000a0: d1ea 9c3d 0c0c e43d 1254 66bc 2207 43bb
000000b0: da79 1a3e 7d86 993d 1bf3 a93d 547b 423d
000000c0: 3b18 bf3c e076 cf3d 61f7 efbc 27bb a73d
000000d0: edf5 bf3d a16d 87bc 5fa9 bf3c 2c56 09bc
000000e0: 3499 f8bb 57a8 b23d 87f8 20bd 2897 33bd
000000f0: c2ca 723d 3688 153e 7fae bb3c ce5b 1e3e
00000100: a654 95bd 2eaf 283c 95d7 c93d dbbd 183e
00000110: 98c1 d83d 5715 6e3d a93d dabc 3367 8d3c
00000120: 4cec 2ebd 97bf b6bb ea89 053d d5ec a6bc
00000130: 81fc e43d c6d9 ae3d b8c6 26bd 3455 403e
00000140: 5dd8 c03b 8938 223d 805e 1b3d 13d8 c13d
00000150: ba9a 5e3d 0813 5f3d ceea 243d 48e5 06bd
00000160: 3452 553d d2c8 ef3c 0ea8 9e3c 9ed3 d9bd
00000170: de93 423d a093 433d 3264 44bc 6db9 893d
00000180: 44a3 d23d d3d1 b53c 00ba a5bd d064 dc3d
00000190: 7cfd 4f3d 71b1 7cbc 4d04 71bd 8f85 a3bd
000001a0: 122d 163d 404e 643d 1a27 173d 085c 053e
000001b0: a4eb 5c3d d50e ea3d d543 053c 2531 fb3c
000001c0: 62fa cabc 219d d1bd 7d74 8ebd 8057 04be
000001d0: 046a 6ebd 01f7 babc 9e29 49bd e350 cf3d
000001e0: 0408 d4bd 766c cb3d 5109 cdbd 9847 793b
000001f0: 3ee8 61bd 878b 07be 56f1 953c 69a5 353e

fc2.weight f4 [64, 128]
0.07578082 0.087761335 0.03690552 0.35268706 0.077585354 -0.10809355 0.43138313 0.062236324
0.23417416 0.32227513 0.015657412 0.1354558 0.06073349 -0.05619891 -0.0796324 0.06529388
0.176441 0.18798338 0.110682696 0.014779347 -0.17781574 0.14322256 0.028093873 0.14615439
0.29588956 0.10180947 0.21602803 0.0045739254 -0.065692104 0.081430666 -0.09315637 0.20678082
-0.2692848 -0.03399922 -0.061414793 0.034568377 -0.25313222 -0.09691477 0.25186163 -0.35215023
-0.03501349 0.08733827 -0.1394974 0.010808451 -0.043885384 0.24614428 -0.068364 0.09121617
0.05344185 0.08678554 0.07577172 0.09162402 0.22083962 0.035716746 0.1376693 0.011671064
0.068973795 -0.09035268 -0.18199007 0.0699282 -0.12983401 0.31883872 -0.0022346794 -0.3260253
-0.2600999 0.11142169 -0.376794 -0.06535678 0.20238109 -0.38185653 0.23660205 0.08061158
0.1105759 0.16676717 0.039951377 0.0005504125 0.12978286 0.20750035 0.06861709 -0.07035008
0.11107966 0.06389038 -0.019892836 -0.1137501 -0.122240245 -0.05559004 -0.095219545 0.22035599
0.06874743 0.10328799 -0.0566489 0.0218118 0.15550141 0.020933086 0.15739177 0.081324145
0.27098215 -0.27741268 -0.18077579 -0.023020055 -0.03360425 0.016599713 -0.2978195 -0.11560694
0.07353824 0.0444767 0.07803794 0.009609047 0.1372057 0.005286153 0.08065228 0.1702703
0.025989002 -0.053293325 0.034624342 -0.113163486 -0.12506565 0.0015766894 0.1814469 0.29905388
-0.1738919 -0.03819139 -0.32787466 0.06961561 0.10675032 0.3853568 0.1538273 -0.02288229
-0.03142154 -0.05658549 -0.379227 0.08393733 0.12540783 0.13818827 0.061553262 0.045444936
0.12226519 0.17170341 -0.09018012 0.1266945 0.16046302 -0.09747309 0.62141466 0.115003005
-0.08644317 0.04940333 0.10781125 -0.035775486 0.24995896 0.16689202 0.041226394 0.08232295
0.22427455 -0.13691138 0.039773934 -0.054922152 -0.11364766 -0.36342886 -0.09716232 0.11513242
0.1838852 0.003511875 0.19937818 -0.19166061 -0.023176076 0.05547823 -0.18225981 0.028809749
-0.013809531 0.065371364 -0.046472482 0.4767441 0.11038931 -0.536055 0.1891917 -0.22817191
0.052620333 -0.18955442 -0.06441543 0.07253117 0.020248268 0.015334375 0.45407617 0.07096671
-0.12251647 -0.15468757 0.09030474 -0.06260037 -0.15913986 -0.35127398 0.016209899 0.22606812
0.18785022 -0.27281204 0.29356247 0.10344133 0.009082798 0.15254012 -0.23794888 -0.02036997
0.31677976 -0.11601874 -0.014712007 -0.017959997 0.046650235 0.13811016 0.081489444 -0.107953064
0.02015144 0.04012841 0.13463762 -0.14846519 0.12453748 0.03799554 0.10369733 -0.07108996
-0.101506 -0.25427014 -0.05014957 -0.644239 0.02889922 0.00063547626 0.0939935 0.0064279516
-0.07666444 0.123150714 0.044629075 0.093809985 -0.21382429 -0.19187868 0.17566529 0.066123635
-0.024880318 0.05072722 -0.10530495 -0.114942856 0.21760544 -0.31430674 -0.058323145 0.0403891
0.24730338 0.26487783 0.0799395 0.019953378 -0.09027986 0.47201777 -0.0910536 0.105279416
0.14267996 -0.04649587 0.21703994 0.42446893 -0.09219194 0.11946944 0.32198608 0.0216942
00000000: f932 9b3d 37bc b33d 3e2a 173d 6693 b43e
00000010: 12e5 9e3d 2760 ddbd 40de dc3e 84eb 7e3d
00000020: 5acb 6f3e 3f01 a53e f943 803c edb4 0a3e
00000030: aec3 783d d430 66bd 5016 a3bd ccb8 853d
00000040: f3ac 343e b77e 403e 9cad e23d 1325 723c
00000050: 5415 36be efa8 123e 1f25 e63c 7fa9 153e
00000060: d67e 973e 7c81 d03d 7436 5d3e dee0 953b
00000070: 9589 86bd 1fc5 a63d c4c8 bebd 5abe 533e
00000080: b3df 89be c442 0bbd 148e 7bbd 9297 0d3d
00000090: 8c9a 81be 407b c6bd 02f4 803e 094d b4be
000000a0: 4e6a 0fbd 68de b23d 68d8 0ebe ee15 313c
000000b0: 29c1 33bd 3f0d 7c3e 6d02 8cbd 8bcf ba3d
000000c0: d7e5 5a3d 9ebc b13d 342e 9b3d 60a5 bb3d
000000d0: c823 623e b94b 123d 2ef9 0c3e fe37 3f3c
000000e0: 2242 8d3d d30a b9bd 9b5b 3abe 8436 8f3d
000000f0: 35f3 04be d43e a33e b373 12bb caec a6be
00000100: d02b 85be 0e31 e43d 25eb c0be c7d9 85bd
00000110: fd3c 4f3e b382 c3be cf47 723e af17 a53d
00000120: 9e75 e23d 03c5 2a3e 0ea4 233d 8f49 103a
00000130: cce5 043e f97a 543e 1e87 8c3d b413 90bd
00000140: bc7d e33d f6d8 823d 4df6 a2bc d0f5 e8bd
00000150: 1859 fabd 62b2 63bd 7702 c3bd 00a5 613e
00000160: 74cb 8c3d a788 d33d ad08 68bd a9ae b23c
00000170: c33b 1f3e dd7b ab3c 4f2b 213e 468d a63d
00000180: 2cbe 8a3e 0909 8ebe 4a1d 39be 8e94 bcbc
00000190: 9ca4 09bd 1ffc 873c cc7b 98be 55c3 ecbd
000001a0: 379b 963d 332d 363d 5bd2 9f3d 446f 1d3c
000001b0: a77f 0c3e 7737 ad3b 062d a53d 565b 2e3e
000001c0: e3e6 d43c 1a4a 5abd 41d2 0d3d 42c2 e7bd
000001d0: 3611 00be eba8 ce3a 37cd 393e 971d 993e
000001e0: b810 32be 936e 1cbd 30df a7be a192 8e3d
000001f0: e99f da3d 7d4d c53e e784 1d3e a473 bbbc
00000200: dfb3 00bd 30c6 67bd 0b2a c2be 56e7 ab3d
00000210: e96a 003e 3a81 0d3e 461f 7c3d 7824 3a3d
00000220: 2c66 fa3d 05d3 2f3e 5bb0 b8bd 34bc 013e
00000230: 6b50 243e f99f c7bd 0815 1f3f b286 eb3d
00000240: 1e09 b1bd 255b 4a3d 25cc dc3d 5189 12bd
00000250: 3ef5 7f3e bee5 2a3e 02dd 283d ef98 a83d
00000260: 3aa8 653e 7f32 0cbe fee9 223d 0df6 60bd
00000270: 1bc0 e8bd 5913 babe 0afd c6bd 8cca eb3d
00000280: 674c 3c3e 7c27 663b cb29 4c3e ae42 44be
00000290: c1db bdbc 243d 633d 51a2 3abe 6c02 ec3c
000002a0: 5f41 62bc 6ce1 853d ee59 3ebd cd17 f43e
000002b0: ca13 e23d e73a 09bf 78bb 413e e6a5 69be
000002c0: 6b88 573d 8e1a 42be 3dec 83bd 398b 943d
000002d0: b2df a53c 083d 7b3c ac7c e83e ff56 913d
000002e0: eae9 fabd 6b66 1ebe b1f1 b83d 9f34 80bd
000002f0: 8ff5 22be 2fda b3be 9fca 843c 677e 673e
00000300: cf5b 403e 05ae 8bbe d24d 963e 0cd9 d33d
00000310: 04d0 143c 7a33 1c3e dfa8 73be ecde a6bc
00000320: f530 a23e 3c9b edbd a10a 71bc d820 93bc
00000330: 5114 3f3d c06c 0d3e f0e3 a63d 7f16 ddbd
00000340: a214 a53c b05d 243d 72de 093e 4207 18be
00000350: 820d ff3d 36a1 1b3d 445f d43d 9d97 91bd
00000360: 61e2 cfbd b22f 82be a369 4dbd d9ec 24bf
00000370: 0fbe ec3c 1796 263a aa7f c03d 91a1 d23b
00000380: 3f02 9dbd 7136 fc3d facc 363d 731f c03d
00000390: c1f4 5abe d87b 44be 9ae1 333e d46b 873d
000003a0: cfd1 cbbc 58c7 4f3d 1faa d7bd 2967 ebbd
000003b0: f6d3 5e3e d0ec a0be 40e4 6ebd 0a6f 253d
000003c0: 193d 7d3e 119e 873e 52b7 a33d 4475 a33c
000003d0: a6e4 b8bd 50ac f13e 4f7a babd bc9c d73d
000003e0: b21a 123e 7472 3ebd b83f 5e3e fe53 d93e
000003f0: 21cf bcbd 65ac f43d 5cdb a43e 09b8 b13c

fc2.bias f4 [64]
0.14384703 -0.12435788 0.18575679 0.13406429 -0.013564588 -0.045738004 0.018918578 0.07171701
0.1421448 0.019675544 0.12664752 0.15473107 0.016221935 0.043531246 0.030342115 0.054439623
0.045741223 0.047564924 0.14870538 0.0015196059 0.12340037 0.110330194 0.08990226 0.0073994333
-0.0035730435 0.1535433 -0.08353701 0.0012342151 0.11468723 0.10252278 -0.008170253 0.10690217
-0.10710788 -0.028118687 0.065947816 -0.046947513 0.13882883 0.114204474 0.22196642 -0.010422146
-0.06898353 0.18807139 -0.015087715 0.02776131 -0.013599792 -0.04863252 -0.10427805 0.2142024
0.18123643 0.1788677 0.069474824 0.056414135 0.18470542 0.22694711 -0.06453227 0.09530346
0.1806841 0.033637166 0.03491377 0.09130115 -0.012360418 -0.055087555 -0.008619369 -0.010737115
00000000: a34c 133e 58af febd 0737 3e3e 2648 093e
00000010: 013e 5ebc c657 3bbd 22fb 9a3c 5ee0 923d
00000020: 688e 113e 9b2e a13c e3af 013e d271 1e3e
00000030: dde3 843c d24d 323d 0790 f83c 15fc 5e3d
00000040: 265b 3b3d 70d3 423d 3946 183e 832d c73a
00000050: 55b9 fc3d ccf4 e13d ad1e b83d f276 f23b
00000060: b929 6abb 743a 1d3e 7415 abbd 63c5 a13a
00000070: 23e1 ea3d 77f7 d13d 86dc 05bc 86ef da3d
00000080: 605b dbbd 2959 e6bc a60f 873d 094c 40bd
00000090: 2529 0e3e 09e4 e93d 2a4b 633e a6c1 2abc
000000a0: 3d47 8dbd c995 403e 7732 77bc b06b e33c
000000b0: a9d1 5ebc e532 47bd bb8f d5bd e057 5b3e
000000c0: 0b96 393e 1829 373e d148 8e3d 8212 673d
000000d0: 6b23 3d3e d364 683e 7f29 84bd 762e c33d
000000e0: 4105 393e 20c7 093d be01 0f3d 19fc ba3d
000000f0: 5a83 4abc 7da3 61bd 4138 0dbc b9ea 2fbc

fc3.weight f4 [10, 64]
-0.10012058 -0.077101074 -0.09887362 0.25681788 -0.15115671 -0.33717358 0.10908683 -0.19238701
0.23004094 0.13975583 -0.5025752 0.13216433 0.26013106 0.076501265 -0.29782432 -0.08746869
0.24057412 0.2810073 -0.16640042 0.26942545 -0.023760494 -0.11193748 -0.1376609 0.10497113
0.002269901 -0.047397282 -0.02658945 -0.079452224 -0.23354146 0.12983723 0.31345373 0.13024956
-0.056645993 0.35837784 -0.11335579 0.012797466 -0.3564329 -0.46876565 -0.0031650842 -0.038938507
0.050142635 -0.10141242 -0.08504215 -0.31455106 0.13793209 0.21943115 0.29898825 -0.2680071
-0.14493945 -0.34663382 0.004836921 -0.35806644 0.12545164 -0.16075003 0.0063833734 -0.19647375
-0.01658736 0.028944641 -0.0068791183 -0.20448536 -0.20556787 0.016158847 -0.22437306 -0.06698354
0.1035382 0.13286522 -0.24303164 -0.2903961 0.15179135 0.020459628 -0.005243217 0.19322056
-0.16868095 0.09419507 0.077921934 -0.3532468 -0.024372313 0.13894106 -0.17616875 -0.096007064
-0.40550154 -0.029462732 -0.37902442 -0.174663 -0.053404298 0.037442267 -0.32798654 -0.59890306
-0.099463984 -0.41555455 0.11422784 0.044190988 -0.2688218 -0.19281979 0.19869332 -0.5079416
-0.06097433 -1.055862 0.053933516 0.37931147 0.100186065 0.06865448 0.109257914 -0.15266287
0.11008989 0.018217154 0.29601252 -0.24619769 -0.36727569 0.12502377 0.26083186 -0.25439626
-0.28549802 0.20666188 -0.1577074 -0.3349856 -0.23156983 -0.3294032 -0.0056765247 0.06545959
0.23624885 0.13610502 0.12582125 0.12721498 0.19478455 0.034428332 -0.13759635 -0.1357221
-0.07234788 0.29656777 0.17994331 -0.15013434 0.053147055 -0.4988358 0.044165924 0.11587932
0.22502619 0.13776031 -0.35303476 -0.026604852 0.14245827 -0.17043237 0.16368447 0.32539693
0.053089324 -0.2592128 -0.1585639 -0.24256359 0.01730816 0.03743045 -0.20437226 0.0029731616
-0.04765917 -0.30523893 0.13114785 0.05406203 0.09758308 0.2682315 0.18002813 -0.004678616
-0.10882276 -0.10659503 -0.20878647 -0.08537179 0.107447825 -0.31734386 0.13257125 0.0361706
-0.032423355 0.23815645 0.009709252 0.22777916 -0.06233175 -0.17924617 -0.4059741 0.03637895
0.078939214 0.08194539 -0.22004284 0.19352975 0.21998939 -0.06884982 -0.2940486 -0.21652192
-0.15986247 -0.1060438 -0.27156886 0.04184094 0.21495157 -0.07902074 -0.01989803 0.17242394
0.12920603 0.09921611 -0.38224116 -0.2940912 0.046346255 0.17666 -0.032320444 -0.17529061
-0.18042125 -0.08505569 0.046608448 0.117487825 -0.0028419148 0.15097243 0.13819715 -0.5242337
-0.022535756 -0.021422913 0.036435455 0.07106985 -0.20620896 -0.05169747 -0.063058056 -0.4140092
-0.12419659 -0.027102096 0.16261755 -0.08579209 -0.28752443 0.088751525 -0.15305139 0.07950048
0.09159882 -0.29025114 -0.15405618 -0.54908353 -0.20175008 -0.14857328 -0.08785036 -0.009863312
-0.020157756 0.038942233 0.10414673 -0.2884778 0.26601246 -0.27326837 -0.032548256 0.13100673
-0.061745133 -0.7850176 0.073317595 -0.24084353 -0.17079559 -0.05970628 0.13965166 0.16367307
-0.62442905 0.13707383 0.047162622 -0.23415245 0.2116898 0.057691053 0.28219303 0.32940397
00000000: 050c cdbd 2be7 9dbd 417e cabd a27d 833e
00000010: d3c8 1abe 04a2 acbe ea68 df3d 1a01 45be
00000020: da8f 6b3e 271c 0f3e c5a8 00bf 1656 073e
00000030: e62f 853e b2ac 9c3d 6e7c 98be c922 b3bd
00000040: 1059 763e 30e0 8f3e df64 2abe 22f2 893e
00000050: 5ea5 c2bc 7a3f e5bd fbf6 0cbe 1bfb d63d
00000060: 9fc2 143b a723 42bd 1ed2 d9bc d9b7 a2bd
00000070: 7e25 6fbe 0df4 043e 027d a03e 2460 053e
00000080: a105 68bd 4d7d b73e 1527 e8bd 76ac 513c
00000090: 607e b6be 0d02 f0be 4d6d 4fbb fc7d 1fbd
000000a0: 5d62 4d3d 51b1 cfbd 942a aebd d60c a1be
000000b0: 123e 0d3e 8fb2 603e fd14 993e 3a38 89be
000000c0: 026b 14be fd79 b1be 097f 9e3b 7c54 b7be
000000d0: 6576 003e a89b 24be 9e2b d13b 6a30 49be
000000e0: 37e2 87bc 501d ed3c 3a6a e1bb 9c64 51be
000000f0: 6280 52be 8f5f 843c 0dc2 65be ab2e 89bd
00000100: d60b d43d d20d 083e 49dd 78be ccae 94be
00000110: 316f 1b3e f39a a73c 4bcf abbb 9cdb 453e
00000120: b3ba 2cbe 58e9 c03d 8995 9f3d c4dc b4be
00000130: 72a8 c7bc 9146 0e3e 9565 34be 5a9f c4bd
00000140: e69d cfbe d45b f1bc 7d0f c2be dcda 32be
00000150: 77be 5abd 105d 193d daed a7be b651 19bf
00000160: c6b3 cbbd 91c3 d4be 49f0 e93d 9c01 353d
00000170: 03a3 89be 8d72 45be 4376 4b3e 7608 02bf
00000180: 38c0 79bd 7c26 87bf 64e9 5c3d 1d35 c23e
00000190: 5a2e cd3d b89a 8c3d 9dc2 df3d a853 1cbe
000001a0: cf76 e13d 243c 953c f48e 973e 3f1b 7cbe
000001b0: 8f0b bcbe 3b06 003e c18b 853e 3a40 82be
000001c0: cc2c 92be 2c9f 533e 0c7e 21be 3c83 abbe
000001d0: a420 6dbe 89a7 a8be 2402 babb ad0f 863d
000001e0: 38eb 713e 1d5f 0b3e 49d7 003e a544 023e
000001f0: 9a75 473e b904 0d3d 0fe6 0cbe bcfa 0abe
00000200: 202b 94bd bbd7 973e 0f43 383e d1bc 19be
00000210: bab0 593d 6867 ffbe 54e7 343d 2352 ed3d
00000220: 446d 663e 0a11 0d3e f9c0 b4be 6bf2 d9bc
00000230: 95e0 113e d385 2ebe e79c 273e 6d9a a63e
00000240: 3174 593d 8ab7 84be 935e 22be 9762 78be
00000250: d8c9 8d3c ac50 193d f646 51be 60d9 423b
00000260: 4336 43bd 4748 9cbe 9f4b 063e 2670 5d3d
00000270: a3d9 c73d a455 893e 4b59 383e 134f 99bb
00000280: 78de debd 7f4e dabd 1fcc 55be 68d7 aebd
00000290: 9b0d dc3d e57a a2be c2c0 073e a027 143d
000002a0: 5ace 04bd 49df 733e 8e13 1f3c f13e 693e
000002b0: 944f 7fbd 4f8c 37be d6db cfbe 1802 153d
000002c0: e2aa a13d fcd2 a73d e952 61be aa2c 463e
000002d0: e644 613e 2201 8dbd 8a8d 96be ecb7 5dbe
000002e0: fdb2 23be 7e2d d9bd 130b 8bbe 6861 2b3d
000002f0: 441c 5c3e a0d5 a1bd 3201 a3bc e78f 303e
00000300: 964e 043e d131 cb3d 1db5 c3be 1f93 96be
00000310: 92d5 3d3d 5ce6 343e 7162 04bd 627f 33be
00000320: 59c0 38be ad31 aebd 80e8 3e3d 759d f03d
00000330: 6b3f 3abb 8498 1a3e 8e83 0d3e 2e34 06bf
00000340: e89c b8bc 1b7f afbc 583d 153d 128d 913d
00000350: 7128 53be bac0 53bd 9524 81bd 04f9 d3be
00000360: c85a febd 3705 debc 3785 263e c3b3 afbd
00000370: 6736 93be 5cc3 b53d 81b9 1cbe 26d1 a23d
00000380: 2a98 bb3d cc9b 94be e7c0 1dbe bd90 0cbf
00000390: 9397 4ebe 9823 18be e4ea b3bd bb99 21bc
000003a0: e121 a5bc e481 1f3d e14a d53d 5db3 93be
000003b0: c932 883e d5e9 8bbe 5251 05bd a126 063e
000003c0: 77e8 7cbd eaf6 48bf 8927 963d b09f 76be
000003d0: 0ae5 2ebe 928e 74bd d800 0f3e ea99 273e
000003e0: 95da 1fbf 155d 0c3e 982d 413d a9c5 6fbe
000003f0: 36c5 583e 744d 6c3d 9b7b 903e a3a7 a83e

fc3.bias f4 [10]
-0.13879259 -0.13222271 0.074384905 -0.14602706 0.03909639 0.0041449824 -0.102943845 -0.0007626196
-0.0028845072 0.058169562
00000000: a51f 0ebe 6465 07be 1d57 983d 1e88 15be
00000010: 8923 203d a2d2 873b 39d4 d2bd 89ea 47ba
00000020: 000a 3dbb 3543 6e3d
