mnist_mlp.pth (torch, 440092 bytes, 6 tensors)

fc1.weight f4 [128, 784]
0	0xbc22196e	-0.009893758
1	0xbb371f90	-0.0027942397
2	0xbc556ed8	-0.0130269155
3	0xbbcb1824	-0.006197946
4	0xbc20896e	-0.009798391
5	0xbcd8f393	-0.026483333
6	0x3ca49f4a	0.020095486
7	0x3c80638c	0.015672468
8	0xbbd2ec40	-0.0064368546
9	0x3ca02dc6	0.019553076
10	0x3ab79fa0	0.0014009364
11	0xbd08ec0c	-0.033428237
12	0x3d5a17d3	0.053245377
13	0x3d4885d3	0.04895575
14	0x3c991e5a	0.01869123
15	0x3d073749	0.03301171
16	0x3cacfd7e	0.021116968
17	0x3cf84d96	0.030310433
18	0xbc6f1aaa	-0.01459376
19	0x3b59dca0	0.0033243075
20	0x3ca45fa6	0.02006514
21	0x3c035cf8	0.008017771
22	0x3c803b3e	0.015653249
23	0xbc153aa0	-0.009108216
24	0xbccfb23c	-0.025353543
25	0xbc405238	-0.0117383525
26	0xbceb360e	-0.028712299
27	0xbc9fac7a	-0.019491423
28	0x3c44af50	0.012004688
29	0xbc3977f8	-0.011320107
30	0x3c870a20	0.01648432
31	0xbc9320ae	-0.017959919
32	0x3cae56d7	0.021281643
33	0x3ce8c0ff	0.02841234
34	0x3de94e06	0.11391835
35	0x3dc98948	0.098406374
36	0x3daf18ec	0.08549675
37	0x3caea8a1	0.021320643
38	0x3db38cc9	0.08767087
39	0x3d9c5558	0.076334655
40	0x3e330e0b	0.17485826
41	0x3e546fdf	0.207458
42	0xbce5f291	-0.028069766
43	0x3d8662a7	0.06561785
44	0x3d9a02d1	0.075200684
45	0x3e44652c	0.19179219
46	0x3e0120ee	0.12610218
47	0x3e2be9eb	0.16788451
48	0x3ded5d65	0.11590079
49	0x3e0a5ce8	0.13512003
50	0x3d8607b9	0.06544442
51	0x3d34ec65	0.044170756
52	0x39938300	0.00028135628
53	0xbc5dd798	-0.013540171
54	0x3c9fba78	0.019498095
55	0x3c874290	0.016511232
56	0x3d031791	0.032004897
57	0x3bf9fcb0	0.0076289997
58	0x3d1d5518	0.03841123
59	0x3dddc995	0.10829464
60	0x3d1147d5	0.035468895
61	0x3d8ec38e	0.06970893
62	0x3dcb0d5a	0.09914656
63	0x3e1cc076	0.15307793
64	0x3e325f95	0.17419274
65	0x3e31f54e	0.17378733
66	0x3de811f4	0.11331549
67	0x3e5750ad	0.21026869
68	0x3e17fc1c	0.14842266
69	0x3de2d463	0.11075666
70	0x3e5154ce	0.20442507
71	0x3e4669b2	0.19376257
72	0x3e6ffd7c	0.2343654
73	0x3e735a8a	0.23765007
74	0x3e971d2e	0.2951445
75	0x3e05071d	0.12990995
76	0x3ce6f745	0.02819408
77	0x3e40d78c	0.18832225
78	0x3e40fda6	0.18846759
79	0x3de9f2f1	0.114232905
80	0x3c91e1d1	0.017807873
81	0x39f0157d	0.00045792377
82	0x3cbec8da	0.023289133
83	0xbcd81525	-0.02637727
84	0x3cf9ba86	0.03048445
85	0x3aa143c0	0.0012303516
86	0xbdbfe140	-0.09369135
87	0xbd732bd4	-0.05936797
88	0xbd62b2e7	-0.055346396
89	0x3e25b486	0.16182145
90	0x3e34766f	0.17623304
91	0x3dc44784	0.09583953
92	0x3e59df95	0.21276696
93	0x3ddf6003	0.10906985
94	0x3dcd4d4d	0.100245096
95	0x3e517e76	0.20458397
96	0x3e5779d3	0.21042566
97	0x3e81c0ca	0.253424
98	0x3e32b908	0.17453396
99	0x3e1a7e03	0.15087132
100	0x3e80657e	0.25077432
101	0x3d581413	0.05275352
102	0x3db568c8	0.08857876
103	0x3de4caa6	0.111714646
104	0x3dd9e621	0.10639597
105	0x3e559558	0.20857751
106	0x3e0a6806	0.13516244
107	0x3ea6ded8	0.3259189
108	0x3cda7114	0.026665248
109	0xbdf3715c	-0.11886856
110	0xbcc722c0	-0.024308562
111	0xbc0373aa	-0.008023182
112	0xbcf905dc	-0.030398302
113	0xbce49030	-0.027900785
114	0xbdf69582	-0.12040235
115	0xbe27efdb	-0.16400091
116	0x3d7329e5	0.059366126
117	0x3bd187cc	0.006394362
118	0xbd8fcf59	-0.0702197
119	0x3d96cae6	0.073629186
120	0x3e39b272	0.18134478
121	0x3da845f1	0.08216465
122	0x3dce46e3	0.10072114
123	0x3d7b8e0d	0.061414767
124	0x3df33684	0.118756324
125	0xbc7d2581	-0.015450836
126	0xbc5440a9	-0.012954869
127	0xbd0b5740	-0.034018755
128	0x3e0a1b31	0.13486935
129	0x3ddb4e8d	0.10708342
130	0x3d013355	0.031543095
131	0x3de2469f	0.11048626
132	0x3dd27379	0.10275931
133	0x3d514ec5	0.05110051
134	0xbd071b0e	-0.032984786
135	0xbdaccc10	-0.08437359
136	0xbdbcfd10	-0.09227955
137	0xbd8e994c	-0.06962833
138	0x3e022d83	0.12712674
139	0x3e5a5a7b	0.21323578
140	0xbd0f1f2f	-0.03494185
141	0x3c87bc5a	0.016569305
142	0xbd177150	-0.036973298
143	0xbd33f6b5	-0.04393645
144	0x3d42fdcb	0.047605317
145	0xbe74b32c	-0.23896474
146	0xbd930e92	-0.071805134
147	0x3dcf977b	0.101363145
148	0xbd2abd6e	-0.04168456
149	0xbdce6b7f	-0.10079097
150	0xbbf6ab9b	-0.007527781
151	0xbd05fb80	-0.032710552
152	0x3c356338	0.011071019
153	0xbdb3b2c0	-0.08774328
154	0x3c1bb57a	0.009503717
155	0xbd19beeb	-0.03753559
156	0xbcd24019	-0.02566533
157	0x3d93e3d0	0.07221186
158	0x3bf532f5	0.007482881
159	0x3e451681	0.19246866
160	0x3e322d50	0.17400098
161	0xbb9ccbd8	-0.0047850423
162	0xbe23becb	-0.1599075
163	0xbdbdcd2a	-0.092676476
164	0xbc94023d	-0.018067474
165	0x3db2ba3c	0.08726928
166	0x3e88ba65	0.26704708
167	0x3e3c1885	0.18368728
168	0x3d040449	0.03223065
169	0x3da08152	0.07837166
170	0xbded402a	-0.11584504
171	0xbd9eea3f	-0.07759523
172	0xbe419be2	-0.18907121
173	0xbe893a0e	-0.26802105
174	0xbe091375	-0.13386329
175	0xbdac2770	-0.084059596
176	0xbe049e40	-0.12950993
177	0xbe5f4202	-0.21802524
178	0xbe13ceec	-0.14434403
179	0xbdd76a9f	-0.10518383
180	0xbe1ad386	-0.15119752
181	0xbdb4d8b7	-0.088303976
182	0xbd8f8dc8	-0.070094645
183	0x3dbe99b9	0.09306664
184	0x3cf12a87	0.029439224
185	0x3c45a805	0.012063985
186	0xbd8289e1	-0.063739546
187	0xbc58745a	-0.013211334
188	0x3c067896	0.008207461
189	0xbe02eaca	-0.12784877
190	0xbe2e35c4	-0.17012697
191	0x3ca2fe98	0.01989679
192	0x3d91537c	0.070960015
193	0x3e205a59	0.15659465
194	0x3dbe6ecb	0.09298476
195	0x3dc1d594	0.09464565
196	0x3c9d840a	0.019228
197	0xbcbef528	-0.023310259
198	0xbe38dd7f	-0.18053244
199	0xbe40aba5	-0.18815477
200	0xbe1bdba4	-0.15220505
201	0xbe89737a	-0.26845914
202	0xbe488e28	-0.19585478
203	0xbe673690	-0.22579408
204	0xbe56dbd9	-0.20982303
205	0xbe22abfa	-0.15885916
206	0xbd682c4d	-0.056682874
207	0xbd0c5b41	-0.034266714
208	0xbd806b7a	-0.062704995
209	0xbcb4af4b	-0.022056242
210	0x3ce99217	0.028512044
211	0x3e18185c	0.14853042
212	0x3ca0c2f7	0.019624216
213	0xbd8601eb	-0.065433346
214	0x3c523dfd	0.012832162
215	0xbde9f9d6	-0.114246055
216	0xbdfff2cd	-0.124974824
217	0xbde6e916	-0.11274926
218	0xbd8aee63	-0.0678375
219	0xbe043eef	-0.12914632
220	0xbcc9dad8	-0.024640486
221	0x3d87cc28	0.066307366
222	0xbd832dc9	-0.06405217
223	0x3dc504af	0.09620034
224	0x3c033455	0.008008082
225	0xbdbc720f	-0.092014425
226	0xbe271926	-0.16318187
227	0xbd93da53	-0.072193764
228	0xbdbbff63	-0.091795705
229	0xbdf1ddad	-0.118098594
230	0xbd378fad	-0.044814754
231	0xbd0d4c1c	-0.03449641
232	0xbdaf416e	-0.085574016
233	0x3ae48938	0.0017435914
234	0x3ba4bd50	0.0050274506
235	0xbc99c6d8	-0.018771574
236	0x3d9ee4ca	0.07758482
237	0x3e1602f2	0.14649561
238	0x3d10baac	0.035334274
239	0xbd1b0f68	-0.03785649
240	0xbc3e0e84	-0.0116001405
241	0x3bf27de2	0.0074002603
242	0xbd805e99	-0.06268043
243	0xbdd30a67	-0.103047185
244	0xbd8dd3a9	-0.069251366
245	0xbda53d9e	-0.08068393
246	0xbdd9b23f	-0.10629701
247	0xbe49a00e	-0.19689962
248	0xbdcdda29	-0.100513764
249	0xbd53e9c7	-0.05173662
250	0x3d891d3a	0.06695028
251	0x3d91cc7b	0.0711908
252	0x3c47068b	0.012147556
253	0xbe55775d	-0.20846315
254	0xbe736a19	-0.23770942
255	0x3cbbeca7	0.022939993

fc1.bias f4 [128]
0	0x3bd772f6	0.0065749837
1	0xbd969250	-0.07352126
2	0xbb1ef359	-0.0024253933
3	0xbac296ec	-0.0014846004
4	0x3a83de5c	0.0010060775
5	0x3e4f07bd	0.20217796
6	0x3a872a4c	0.0010312288
7	0x3e8f3ba7	0.279752
8	0xbc3a3d8b	-0.011367212
9	0x3c6e5044	0.014545504
10	0x3e59d958	0.21274316
11	0xbcaedad8	-0.021344587
12	0xbd82a7f5	-0.063796915
13	0xbd048428	-0.032352597
14	0x3db6f7a3	0.08933952
15	0x3e236fe0	0.15960646
16	0x3d1ea78a	0.038733996
17	0x3dd80016	0.105468914
18	0x3db07ab1	0.086171515
19	0x3cb1b2f8	0.021691784
20	0x3ddb8d18	0.10720271
21	0x3dce7125	0.10080174
22	0x3c947ce3	0.018125957
23	0x3b25d3b0	0.0025303178
24	0xbcdea5b6	-0.027178627
25	0x3dfdc4de	0.12391065
26	0xbd84c8f9	-0.06483645
27	0x3d41aa99	0.047281835
28	0xbc9a18c0	-0.01881063
29	0xbe12f824	-0.1435247
30	0xbd78e1ce	-0.06076222
31	0xbe2469f0	-0.16056037
32	0x3cd976de	0.026545938
33	0x3d8e68c7	0.069535784
34	0x3dae494e	0.085100755
35	0x3d9bde18	0.076107204
36	0x3dc8770c	0.097883314
37	0x3d74b136	0.059739314
38	0x3c6ad408	0.014332779
39	0x3d87c4a8	0.06629306
40	0xbc1dc5f2	-0.009629713
41	0x3da5220d	0.08063135
42	0x3d0fdea4	0.035124436
43	0xbc87279e	-0.016498383
44	0x3d4dc391	0.050235335
45	0xbc620998	-0.013796233
46	0xbde0ec30	-0.10982549
47	0xbe14417a	-0.14478102
48	0x3ce1a365	0.027543733
49	0x3cc84f78	0.024451956
50	0x3dd022e5	0.101629056
51	0x3d2efc05	0.042720813
52	0x3c6a2624	0.01429132
53	0xbce89dc4	-0.028395541
54	0x3d563103	0.052292835
55	0x3e3a9a9a	0.18223038
56	0xbcdea40f	-0.027177839
57	0x3c12c231	0.008957432
58	0xbbf8213e	-0.007572322
59	0xbd822a35	-0.063557066
60	0x3e3e5341	0.18586446
61	0x3e015418	0.12629735
62	0x3d880aad	0.06642661
63	0x3d77e1b0	0.060517967
64	0x3bbaeee4	0.0057047475
65	0x3e307008	0.17230237
66	0x3bf83e4b	0.0075757853
67	0x3a46ecca	0.0007588385
68	0x3dc2ef67	0.095183186
69	0xbace123e	-0.0015721989
70	0xbdcd2d40	-0.100183964
71	0x3da57dcd	0.08080635
72	0x3dc40f05	0.09573177
73	0x3ca3d7b0	0.020000309
74	0x3e1077f2	0.14108256
75	0x3d898ae8	0.067159474
76	0xbd1716d7	-0.036887016
77	0x3d2dbd7c	0.042417035
78	0xbdb41c40	-0.08794451
79	0x3d79768d	0.060904074
80	0x3c9c3666	0.019068908
81	0x3c9b4d68	0.018957809
82	0x3c00e25f	0.007866471
83	0xbdc02e0c	-0.09383783
84	0x3a15b143	0.0005710313
85	0x3e22129e	0.15827414
86	0xbd26c1f8	-0.040712327
87	0x3e34f02b	0.17669742
88	0xbddad5b9	-0.106852956
89	0x3e47cc61	0.19511558
90	0x3dd7547d	0.10514162
91	0x3de53e4f	0.11193525
92	0x3d5bd2eb	0.053667944
93	0xbd3e9ce4	-0.04653634
94	0x3e2fed26	0.17180309
95	0x3caef05b	0.021354845
96	0xbca928e6	-0.020649385
97	0x3e081206	0.13288125
98	0x3ca433f5	0.020044306
99	0x3ac43861	0.0014970416
100	0x3d8fccc3	0.07021477
101	0xbe0b524d	-0.13605614
102	0x3d9c97d5	0.07646147
103	0x3ba6c1af	0.005089007
104	0x3d6b9181	0.05751181
105	0x3d0a9484	0.03383304
106	0x3d666637	0.056249823
107	0xbd34a9c8	-0.04410723
108	0x3d9f209a	0.0776989
109	0xbb9d645f	-0.004803225
110	0x3dd04798	0.101699054
111	0xbda7d1d9	-0.08194322
112	0xbd3402c4	-0.04394795
113	0x3d8a5762	0.06754948
114	0x3c4d324d	0.0125242
115	0xbce501ad	-0.0279549
116	0xbdae25b2	-0.085032836
117	0xbcdb67d3	-0.026782906
118	0xbdce48ef	-0.10072505
119	0x3d892434	0.06696358
120	0xbdc567bd	-0.09638927
121	0x3e39ab74	0.1813181
122	0x3df72486	0.12067513
123	0xbadf898d	-0.0017054543
124	0xbc6b6182	-0.014366509
125	0xbd2c7746	-0.042105936
126	0xbce6c2e5	-0.028169105
127	0xbcd40e1b	-0.025885632

fc2.weight f4 [64, 128]
0	0x3dd8fcac	0.10595068
1	0x3e7b6cd6	0.24553236
2	0x3d18fe8b	0.037352126
3	0xbde19eea	-0.110166386
4	0xbca56158	-0.020188019
5	0xbe06178d	-0.13094921
6	0x3db96a55	0.09053484
7	0x3d8c2801	0.06843568
8	0x3e32c012	0.17456082
9	0xbd9decd3	-0.07711186
10	0xbc19ef48	-0.009395428
11	0xbcb4fd93	-0.02209357
12	0x3e82360a	0.25431854
13	0xbde9d37c	-0.114172906
14	0x3e379e7a	0.17931548
15	0xbdcc16c1	-0.099652775
16	0xbd9f5176	-0.07779209
17	0x3d9c4c8d	0.076317884
18	0x3ca72b49	0.020406382
19	0x3ea11e60	0.31468487
20	0x3e3cd0fa	0.18439093
21	0x3e430d2b	0.19047992
22	0x3e09bde4	0.13451344
23	0x3e3dda7e	0.1854038
24	0x3eaab4fe	0.3334121
25	0x3d8387e9	0.06422407
26	0x3e694a8c	0.22782344
27	0xbdf689a4	-0.120379716
28	0xbe02bea5	-0.12768038
29	0x3da6bd14	0.081415325
30	0x3e13cba7	0.14433156
31	0x3c4ec976	0.012621274
32	0xbc994f9c	-0.018714719
33	0xbb54ccfa	-0.0032470808
34	0x3e32f137	0.17474829
35	0xbd830192	-0.06396784
36	0x3d456b17	0.048197832
37	0x3d775597	0.06038436
38	0x3e5ab421	0.21357776
39	0x3e58f185	0.21185882
40	0x3e189095	0.14898904
41	0x3d76e838	0.060280055
42	0x3da2f6bb	0.07957216
43	0x3d28c3c3	0.041202318
44	0xbe179bb7	-0.14805494
45	0xbb69cffb	-0.0035676945
46	0x3e49057b	0.19630997
47	0x3e3eb567	0.18623887
48	0x3e0a0812	0.13479641
49	0x3d0c8d01	0.03431416
50	0x3c61a576	0.013772359
51	0xbe697a2f	-0.22800516
52	0x3e0028fa	0.12515631
53	0xbcf80011	-0.03027347
54	0x3dee2997	0.116290264
55	0xbd069dc9	-0.03286532
56	0xbcfc1014	-0.030769385
57	0xbe1820ae	-0.14856216
58	0xbd2eed44	-0.042706743
59	0x3ea58f2f	0.32335803
60	0x3e2385b0	0.15968966
61	0x3dffdb7f	0.124930374
62	0x3d0bfe55	0.034178097
63	0x3d84adfd	0.06478498
64	0x3e5fa256	0.2183927
65	0xbd17b95e	-0.037042014
66	0xbda57398	-0.080786884
67	0x3cdb9292	0.026803289
68	0x3bae2c5b	0.005315346
69	0x3d34b187	0.044114616
70	0xbdcffc67	-0.10155564
71	0xbd155def	-0.036466535
72	0xbcdff5e1	-0.027338924
73	0xbdc46f08	-0.0959149
74	0x3e062d8c	0.13103312
75	0xbe3333ba	-0.17500201
76	0x3d721e03	0.059110653
77	0xbd081553	-0.03322346
78	0xbe6d0852	-0.23147705
79	0xbe359f63	-0.17736582
80	0xbc578692	-0.013154643
81	0xbd57cbeb	-0.052684706
82	0xbeadbb7d	-0.33932105
83	0x3e97d1ee	0.2965235
84	0x3dfd1a83	0.12358572
85	0x3dadd5fc	0.0848808
86	0x3e1e6cf3	0.15471248
87	0x3e1de158	0.15417993
88	0x3e0f5c21	0.13999988
89	0x3d59e8d4	0.053200558
90	0x3e259597	0.16170345
91	0x3dba3533	0.09092178
92	0xbddd4ace	-0.108052835
93	0x3d236623	0.039892327
94	0xbc47aaae	-0.012186689
95	0x3d754ebf	0.05988955
96	0x3d71d44d	0.059040356
97	0x3ea0ffde	0.3144521
98	0x3cb124a8	0.021623924
99	0x3cc8da27	0.024518086
100	0xbd771c5d	-0.060329784
101	0x3dd75650	0.1051451
102	0xbe858f92	-0.26086098
103	0xbe1859f9	-0.14878072
104	0x3d1426f6	0.03616997
105	0x3f0aec55	0.54266864
106	0x3de8d63c	0.11368987
107	0x3d459185	0.04823448
108	0x3cb4c1d2	0.022065077
109	0x3e56bb46	0.20969877
110	0x3e2b8d5f	0.16753148
111	0xbde17f1d	-0.11010573
112	0xbc00b888	-0.007856496
113	0xbd8421a5	-0.0645173
114	0x3c98f1a1	0.018669905
115	0x3d57e9fd	0.052713383
116	0xbd59d338	-0.05317995
117	0xbd9ec32f	-0.07752072
118	0xbce0ab14	-0.027425326
119	0xbc5e31a5	-0.013561641
120	0x3e1227cd	0.14272995
121	0xbc0394d3	-0.008031088
122	0x3d94ecee	0.07271753
123	0x3cfbc328	0.030732706
124	0x3e56d203	0.2097855
125	0xbd395435	-0.04524632
126	0x3e399488	0.18123066
127	0x3d472994	0.048623636
128	0x3d821034	0.06350747
129	0xbcccf3bf	-0.025018571
130	0xbbb1b854	-0.005423585
131	0xbe3a15ac	-0.1817233
132	0x3e3a5041	0.18194677
133	0x3df6c66f	0.12049567
134	0x3dce3fa9	0.10070736
135	0x3dc15c08	0.09441382
136	0x3e1f306b	0.15545814
137	0x3e120e5f	0.14263295
138	0xbdcd4054	-0.10022035
139	0xbd8c9386	-0.06864075
140	0x3e415a3c	0.18882078
141	0x3e23c116	0.15991625
142	0xbd3e165b	-0.04640804
143	0xbeb821a8	-0.35963178
144	0x3d9c4f09	0.07632262
145	0x3de25ac5	0.11052469
146	0x3dccbd87	0.09997087
147	0x3e2c72e5	0.16840704
148	0xbe7ca3d7	-0.24671875
149	0xbd6b1ad4	-0.057398632
150	0x3b861048	0.0040912963
151	0x3e380315	0.17969926
152	0x3e7de3c6	0.2479392
153	0xbd60c792	-0.054877825
154	0x3e240623	0.16017966
155	0xbe6d939c	-0.2320084
156	0x3e666fcc	0.22503585
157	0xbe037d37	-0.12840734
158	0xbb80418e	-0.0039140647
159	0x3e4d5e70	0.20055556
160	0x3db57d98	0.08861846
161	0xbd83b2b3	-0.064305685
162	0x3df943b8	0.121711195
163	0xbcc61a42	-0.024182443
164	0xbe74b4b6	-0.23897061
165	0x3dbc2eb2	0.09188594
166	0x3e4f510e	0.20245764
167	0x3e2bcbfc	0.16777033
168	0x3be8e682	0.007107557
169	0xbe530cca	-0.20610347
170	0x3cefb8ac	0.029262863
171	0x3d6c2f80	0.057662487
172	0x3df3f728	0.11912376
173	0x3dd6f6dd	0.10496304
174	0x3d0520bb	0.032501917
175	0x3ddcd37f	0.10782527
176	0xbe935a9b	-0.28780064
177	0x3e0f31a6	0.13983783
178	0x3d21a5bf	0.03946471
179	0xbe1f3628	-0.15548003
180	0xbe4ccffc	-0.20001215
181	0xbe0f3301	-0.139843
182	0x3e2a8821	0.16653492
183	0x3de960ce	0.11395417
184	0xbd41e98c	-0.04734187
185	0x3eec9d94	0.46213973
186	0x3ed13a21	0.4086466
187	0x3e4326ee	0.19057819
188	0xbe69bf28	-0.22826827
189	0xbde05de8	-0.10955411
190	0xbd89ea5d	-0.067341544
191	0xbc21615f	-0.009849875
192	0xbc7fd150	-0.015613869
193	0xbe7c2402	-0.24623111
194	0xbd7fdf74	-0.06246896
195	0xbd1b3767	-0.037894633
196	0x3e2b5260	0.16730642
197	0xbdccdb5d	-0.10002778
198	0x3c9e5d47	0.019331587
199	0xbe6da271	-0.23206498
200	0x3cba316b	0.022728642
201	0x3e859a22	0.26094157
202	0xbd9670c7	-0.07345729
203	0xbe7197ad	-0.23593016
204	0xbe841bef	-0.25802562
205	0x3d895cf5	0.06707183
206	0x3d904477	0.07044309
207	0xbe216cf2	-0.15764216
208	0xbd8ff8f0	-0.07029903
209	0x3e78b548	0.24287903
210	0x3e2d6f49	0.16936983
211	0x3e80e900	0.25177765
212	0x3ca0e22c	0.019639097
213	0xbdce491e	-0.1007254
214	0x3c8a41d4	0.016877092
215	0x3d4530e4	0.04814233
216	0x3e7b5b56	0.2454656
217	0x3dc93cf0	0.09826076
218	0xbd784128	-0.060609013
219	0x3e038c69	0.12846531
220	0x3e5c627f	0.21521948
221	0x3debe1df	0.11517691
222	0x3d858a4b	0.06520518
223	0xbd366f6b	-0.04453985
224	0x3e2b8c41	0.16752721
225	0x3d02a1ec	0.031892702
226	0xbccf4b21	-0.025304379
227	0xbdaf685d	-0.085648276
228	0x3db6cac9	0.08925397
229	0x3d8be8f4	0.06831542
230	0xbe244031	-0.16040112
231	0x3e38b422	0.18037465
232	0xbe616103	-0.22009663
233	0xbd9460f5	-0.072450556
234	0x3e401fa1	0.18762065
235	0x3d7ba3a7	0.061435368
236	0xbd0b4f3d	-0.034011114
237	0xbe5092b4	-0.20368463
238	0x3d83b897	0.06431692
239	0xbd7ebd51	-0.062192265
240	0xbbbc2f81	-0.0057429676
241	0x3cb97eb2	0.02264342
242	0x3cfc553e	0.030802365
243	0x3d9b629a	0.07587166
244	0x3e12d3a6	0.1433855
245	0x3d89ec84	0.06734565
246	0x3df0baf5	0.11754409
247	0xbc48bc46	-0.012251919
248	0xbb09a933	-0.0021005392
249	0x3d4fe077	0.050751176
250	0xbed32ccb	-0.41245112
251	0xbc07a5c7	-0.0082792705
252	0x3e87757c	0.2645682
253	0xbcbd5b9c	-0.023114972
254	0x3d1f7321	0.038928155
255	0xbcbec30c	-0.023286365

fc2.bias f4 [64]
0	0x3e097d5e	0.1342673
1	0x3a87362b	0.0010315826
2	0x3cec5955	0.02885119
3	0x3c59ebaf	0.01330082
4	0x3e04507f	0.12921332
5	0x3ce3ae4a	0.027793068
6	0xbdf76c12	-0.1208116
7	0x3d335c3c	0.043789133
8	0x3c982f83	0.018577343
9	0xbd85e91c	-0.06538603
10	0xbda913c7	-0.08255725
11	0x3e84a386	0.25906008
12	0xbd1afc75	-0.037838418
13	0x3ce183e3	0.027528709
14	0xbd31831e	-0.043337934
15	0x3d247f4c	0.040160462
16	0xbd2eb4a0	-0.042652726
17	0x3cdccf8e	0.026954439
18	0x3e2ee657	0.17080055
19	0x3e26e92f	0.1629989
20	0x3c895324	0.016763277
21	0x3e0125e6	0.12612113
22	0xba9c3ad6	-0.001191939
23	0xbd4a5242	-0.049394853
24	0x3d62aa73	0.055338334
25	0x3dda8148	0.1066919
26	0xbdaf1afb	-0.08550068
27	0x3dcc0b83	0.09963133
28	0x3dab6e66	0.08370666
29	0x3e4354af	0.19075273
30	0x3e1b61f1	0.1517408
31	0x3dd1cfa7	0.10244685
32	0xbd2cfb92	-0.042232104
33	0x3dcad4bc	0.09903857
34	0x3b14ac9b	0.0022685889
35	0x3c199a57	0.009375176
36	0x3ddbe3bb	0.107367955
37	0x3d53dfb2	0.051727004
38	0x3d9e1ed7	0.07720726
39	0x3e8e184b	0.2775291
40	0x3d31b7dd	0.043388236
41	0xbe054c42	-0.13017371
42	0xbd6d0e6b	-0.05787508
43	0x3da4fe77	0.08056348
44	0x3e1bab2a	0.15202013
45	0xbe06958f	-0.1314299
46	0x3e64362c	0.2228629
47	0x3b9df142	0.00482002
48	0xbca9d28a	-0.020730276
49	0xbe1a153f	-0.15047167
50	0xbc26c932	-0.010179805
51	0x3d767629	0.06017128
52	0x3e161474	0.1465624
53	0x3e698b94	0.22807151
54	0x3dbe03a7	0.092780404
55	0x3b020dd6	0.0019844673
56	0xbd8e6541	-0.069529064
57	0x3e55bc39	0.20872582
58	0x3de83a6b	0.11339267
59	0xbe3fffbf	-0.18749903
60	0x3d5eacfc	0.05436419
61	0x3dc80e74	0.09768382
62	0xbcf02bd8	-0.029317781
63	0x3e106010	0.14099145

fc3.weight f4 [10, 64]
0	0x3d90234a	0.07037981
1	0xbe951971	-0.29120973
2	0xbc45f8fe	-0.01208329
3	0xbdb8558b	-0.09000691
4	0x3d84e293	0.06488528
5	0x3d9c5d6b	0.076350056
6	0xbdcd4eca	-0.100247934
7	0xbe8b5071	-0.2720981
8	0x3e0afac2	0.13572219
9	0x3dc34683	0.095349334
10	0xbd55dce0	-0.052212596
11	0xbe9c0889	-0.30475262
12	0xbda569fe	-0.08076857
13	0x3e975fed	0.29565373
14	0x3dc4792a	0.09593423
15	0xbeee5861	-0.46551803
16	0xbebd1c3f	-0.36935613
17	0x3e4ed1c1	0.20197202
18	0xbeaef096	-0.34167928
19	0xbeb2f5e7	-0.34953234
20	0xbea33118	-0.31873393
21	0xbd4bade6	-0.04972639
22	0xbf0216d7	-0.508161
23	0xbcfb575a	-0.0306813
24	0x3e0452ed	0.12922259
25	0xbec9065e	-0.3926267
26	0xbe2441d6	-0.1604074
27	0xbdc0f606	-0.09421925
28	0x3dcb673f	0.09931802
29	0xbe9608c2	-0.29303557
30	0x3d5d2c8a	0.053997554
31	0xbd9dd29a	-0.07706185
32	0xbe248e85	-0.16069992
33	0x3d070851	0.032966916
34	0xbd9507cc	-0.07276878
35	0xbdbfac7b	-0.0935907
36	0xbe8f4a68	-0.27986455
37	0xbe34dada	-0.1766161
38	0xbdd8965e	-0.10575555
39	0xbce618e6	-0.028088044
40	0x3e45f39c	0.19331211
41	0xbe107931	-0.14108731
42	0x3e6545e8	0.22389948
43	0x3e1fe09b	0.15613024
44	0xbe459b34	-0.19297487
45	0x3e8a3e66	0.2700073
46	0x3e2a4c67	0.16630708
47	0x3ddd1cb1	0.10796488
48	0xbe014d89	-0.12627234
49	0x3c6c212e	0.0144122075
50	0xbddcfa1b	-0.10789891
51	0x3e81b98b	0.2533687
52	0xbea2b9f9	-0.3178251
53	0xbeb73119	-0.35779646
54	0x3e80070e	0.25005382
55	0xbd7013b6	-0.058612548
56	0x3dbbae1c	0.09164068
57	0xbd8bca7e	-0.06825732
58	0x3dbb0109	0.09131057
59	0x3e6c591c	0.23080868
60	0xbe2ecac0	-0.1706953
61	0xbdf93485	-0.121682204
62	0xbdcfa15e	-0.101382
63	0xbe9ee3dc	-0.31033218
64	0x3d3c6fb2	0.04600496
65	0x3d4c2b7f	0.04984617
66	0xbe8b153a	-0.27164632
67	0x3b8ff8e9	0.004393686
68	0xbcbf59cc	-0.023358248
69	0x3cf4dc70	0.029890269
70	0xbdea39b0	-0.11436784
71	0xbe925a7e	-0.28584665
72	0xbe94d8d8	-0.2907169
73	0xbd6de780	-0.058082104
74	0xbdf844ab	-0.121224724
75	0xbdf1abaf	-0.11800324
76	0x3d271a8a	0.040796794
77	0xbae2cbc5	-0.001730316
78	0x3e3181fb	0.1733474
79	0xbe9a6c86	-0.30160922
80	0x3e5d3958	0.21603906
81	0xbead6a41	-0.33870128
82	0xbed71cd9	-0.42014197
83	0x3d9ccd7d	0.07656381
84	0xbe0fe177	-0.14050852
85	0x3e52af28	0.2057463
86	0x3e70e0fc	0.23523325
87	0x3e5852e0	0.21125364
88	0x3bfeca06	0.007775548
89	0xbe6880ec	-0.2270543
90	0x3e8daf60	0.27672863
91	0x3d676101	0.056488995
92	0xbec56195	-0.38551012
93	0x3e927d4e	0.28611225
94	0xbe28fc8e	-0.16502592
95	0xbf2259f9	-0.6341854
96	0xbdc4b832	-0.09605445
97	0xbbe98984	-0.007126989
98	0xbec5c795	-0.38628832
99	0xbe325e0b	-0.17418687
100	0xbe5d0b80	-0.21586418
101	0x3e0a3696	0.13497385
102	0x3e4cc85a	0.19998303
103	0xbe20c3c4	-0.15699679
104	0x3d20259d	0.03909837
105	0x3e712dc1	0.2355261
106	0x3ddb30aa	0.10702641
107	0xbe09fae9	-0.13474621
108	0xbe1b6e55	-0.15178807
109	0x3e705e45	0.23473461
110	0xbe2bdc10	-0.16783166
111	0xbebac0bf	-0.3647518
112	0xbe9e8f55	-0.3096873
113	0xbdb0b0f0	-0.08627498
114	0xbbc18607	-0.00590587
115	0x3d2c1828	0.042015225
116	0x3e363c9e	0.17796561
117	0x3db8149c	0.08988306
118	0xbaebe2c4	-0.0017996659
119	0x3e2a8f09	0.16656126
120	0xbcf70036	-0.030151468
121	0x3e3ec13b	0.18628399
122	0xbda80ea9	-0.08205921
123	0xbe5a36f8	-0.21310031
124	0x3dab2537	0.083567075
125	0x3eace99b	0.33771977
126	0xbe8f669c	-0.28007972
127	0x3d49c8c1	0.04926372
128	0x3e1b14fd	0.15144725
129	0xbc4a0337	-0.012329868
130	0xbdec285a	-0.11531134
131	0xbe1f8b0d	-0.15580387
132	0xbe1b8f3c	-0.15191358
133	0xbe9049f3	-0.2818142
134	0xbde2a00d	-0.110656835
135	0x3e15f739	0.14645089
136	0xbd308115	-0.043091852
137	0x3c3d8ca2	0.011569174
138	0x3cdcb240	0.026940465
139	0x3d40b417	0.047046747
140	0xbcbff560	-0.023432434
141	0xbd03460c	-0.032049224
142	0xbe83cd11	-0.2574239
143	0x3dc0d280	0.0941515
144	0x3db48e81	0.08816243
145	0xbc2def32	-0.010616111
146	0xbecdd676	-0.40202683
147	0xbe8dc0b2	-0.27686077
148	0x3ec6395c	0.38715637
149	0xbf07e9c0	-0.5309105
150	0xbe33448f	-0.17506622
151	0xbecf75f4	-0.4051968
152	0xbe004a02	-0.12528232
153	0xbda3ddc3	-0.08001282
154	0x3e86c2b7	0.2632043
155	0x3e41c3ca	0.18922344
156	0x3e570cd3	0.21000986
157	0x3e1ce5ab	0.15321986
158	0xbdb46e1a	-0.08810063
159	0xbc0644a7	-0.008195079
160	0xbe37d76a	-0.17953268
161	0x3c6bc993	0.014391321
162	0x3e28e544	0.16493708
163	0xbea109ba	-0.31452733
164	0x3e85f4a9	0.26163223
165	0x3e7ca137	0.24670874
166	0x3dff286e	0.12458883
167	0xbbcdb525	-0.0062776976
168	0xbe439407	-0.19099437
169	0x3c7397ca	0.014867732
170	0xbdea1aef	-0.114309184
171	0x3e272f00	0.16326523
172	0xbcb68161	-0.02227849
173	0x3e99b7b1	0.30022958
174	0xbdadd7ab	-0.08488401
175	0x3e166263	0.14685969
176	0x3e1b1362	0.15144113
177	0xbd2e88f9	-0.042611096
178	0xbde447a8	-0.1114648
179	0x3dd54df6	0.104152605
180	0x3dfcf14f	0.123507135
181	0xbdb6de84	-0.0892916
182	0xbec85307	-0.39125845
183	0x3e5a66cc	0.21328276
184	0xbe360aef	-0.17777608
185	0x3e687ace	0.22703096
186	0xbdec879f	-0.11549305
187	0x3e36d0c9	0.17853083
188	0x3d3e6566	0.04648342
189	0xbe886743	-0.26641282
190	0xbdc17fb7	-0.09448188
191	0xbe79d210	-0.24396539
192	0xbdaf214c	-0.08551273
193	0x3e1160f5	0.14197142
194	0x3e5daaaa	0.21647134
195	0x3dc1e8cf	0.09468233
196	0x3e0044f2	0.125263
197	0xbd65e15d	-0.056123126
198	0xbd4a06a1	-0.049322728
199	0xbd54e8fc	-0.051980004
200	0xbc909ca2	-0.017652813
201	0x3e4f3d6a	0.20238271
202	0xbceaf54e	-0.028681424
203	0xbd9bfbbd	-0.07616375
204	0xb9ba4f87	-0.00035535937
205	0xbe93352f	-0.28751513
206	0x3e0dea52	0.13858917
207	0xbd1ae012	-0.037811346
208	0x3e6477c0	0.22311306
209	0xbbd83b1b	-0.006598843
210	0xbecdffff	-0.40234372
211	0xbedc57c1	-0.430357
212	0xbe8c10cd	-0.27356568
213	0xbe546948	-0.20743287
214	0xbe74a1a0	-0.2388978
215	0x3e490e17	0.19634281
216	0xbe329e28	-0.17443144
217	0x3e72e494	0.23720008
218	0xbe83ab8f	-0.25716826
219	0x3ca065a1	0.01957971
220	0xbe695b43	-0.2278872
221	0xbf12b0e1	-0.57301146
222	0x3d563433	0.052295875
223	0xbe958304	-0.2920152
224	0x3b4fa27d	0.0031682544
225	0xbe60d857	-0.21957527
226	0x3e7f0a05	0.24906166
227	0x3e066303	0.13123707
228	0xbeaeb63a	-0.34123403
229	0xbe054a03	-0.13016514
230	0x3dd74551	0.10511268
231	0xbe46cefe	-0.19414899
232	0xbdbdab45	-0.09261183
233	0x3d6aacbd	0.057293642
234	0xbdc4d39d	-0.096106745
235	0x3e546851	0.20742919
236	0x3e61f706	0.22066888
237	0xbdc1230e	-0.09430514
238	0xbe87f443	-0.26553544
239	0x3e1df589	0.15425695
240	0x3e75621e	0.2396321
241	0x3c2ffe5d	0.010741797
242	0xbd68963c	-0.0567839
243	0xbedfe860	-0.43731976
244	0x3e68572c	0.22689503
245	0x3ca425d5	0.020037571
246	0xbe1d8a8c	-0.15384883
247	0xbd358055	-0.04431184
248	0x3cd6d8eb	0.026226481
249	0xbe8d0065	-0.27539364
250	0xbc03b669	-0.008039095
251	0x3dfb18a7	0.122605614
252	0xbea57437	-0.32315227
253	0xbf113994	-0.5672848
254	0x3ddb9f41	0.10723735
255	0x3e19ea9f	0.15030907

fc3.bias f4 [10]
0	0xbd273d77	-0.0408301
1	0xbcfd5d87	-0.030928386
2	0xbdca994d	-0.09892521
3	0xbdecfdb9	-0.11571831
4	0xbca0d33b	-0.019631973
5	0x3e48d7b7	0.19613539
6	0x3c411582	0.011784913
7	0x3d1bf433	0.038074683
8	0x3e2066fb	0.15664284
9	0xbbd27726	-0.006422895
